pretrained_models/resnet20_cifar10_original.pt (torch, 733932 bytes, 69 tensors)

conv1.weight f4 [16, 3, 3, 3]
00000000: 7eeb 533e 4237 7c3e 09e6 473e d7ed f93b
00000010: 9376 0d3f cbd3 393e c1c6 98be ca3e 02bf
00000020: 2992 003d b37d 513d daa3 313e 8b66 ce3e
00000030: 32ac d5bd 487a b33d e746 203d 9654 f8be
00000040: 5c60 5abf c0ef c0be 30fb 153f 1410 283f
00000050: 8b88 263f df1d 003c c8d6 d23e 4ad7 30be
00000060: 5b56 7cbe 8267 55bf c9da 41bf 653d 313f
00000070: 7767 8d3e 22c2 5b3f 502f 60be 8c8b 48bf
00000080: 6fb8 01be 05e5 27bf 9297 5abf 7bb2 86bf
00000090: 4381 dcbd ad5e 2abe 5264 d6bd 4c55 c03e
000000a0: c102 c33d 4841 673d 376f 963e c3e8 a03e
000000b0: c2a4 c1be 89b4 8ebf e77d 28bf 54b7 3abf
000000c0: a5c9 ee3b 7b63 603f d813 683f 4224 923e
000000d0: da1e 913f b05e 633f 89d3 433e a8b5 223f
000000e0: 8e92 113f dddd d13d 3fc4 50bd 3718 433e
000000f0: 5a0b 4bbe a00a ecbd 5767 543e ee8f 1e3e
00000100: b74d a9be 04c4 c2be a1b4 0bbe 9c6e 5abf
00000110: 0c8a 5abf 9743 ed3e 9fbc 15be 64c8 3ebe
00000120: bc82 06be cd28 2f3d ca7a dbbd 50c2 f8ba
00000130: f882 b3be e9c3 5ebe f132 cb3d 75c9 10be
00000140: 2a6b b53e 81ae 363e bef0 2f3c cc1a 9bbe
00000150: e00b 1e3e 86cb d13d 8b8c adbe df6e 923d
00000160: b0b6 7bbd 1a2b 03bf 0667 80be c668 c13c
00000170: e9f5 94be 029e 87be 610b afbe fad6 d9be
00000180: bc23 8fbd aeee acbe 36fa 1abf c472 84bc
00000190: 0b97 163f c589 e03e 784c 29be 8716 453f
000001a0: 2d52 9b3d cb46 adbe f496 183f 0d7b 81be
000001b0: 0615 eebe fb9b 2abf 3793 24bf ec41 103f
000001c0: 413c 763d b678 b53e 85bb 873f 15d6 6f3f
000001d0: d3cf 8cbd 5f32 c8bd 6b99 c1bd 0b1c 593e
000001e0: 91e6 3ebf f429 7ebf dc97 cd3e d31d 9dbe
000001f0: 3fff 90be e13e cdbe 6ce7 5b3e 463e 273f
00000200: 8a60 733f 5353 cabe 3a50 70bc a934 523f
00000210: d93c 7cbf 40d6 31bf e030 793c e454 053e
00000220: 8d5e 9a3e 5660 c23e ed49 e5bb 0f4f 01be
00000230: 81b9 903e b3bb b8bd 06ee 6abe e194 2bbf
00000240: 4d7a 1abf 1784 6abe 42c9 a03e 2231 0cbd
00000250: c73d 2b3e fed9 3a3f f35c 7ebd 852b 5e3e
00000260: da4c b43e d0dd f7be 20c4 73bf bcec 22bf
00000270: 41f8 0abe 46f0 35bf 4b28 47be 6c4c ef3e
00000280: 1126 e23e aed2 da3e 5061 933f b93d 103f
00000290: a7b9 cb3e a7f5 acbd f3af 563f b069 af3e
000002a0: 12e8 a83c ed11 41bf 862a d6bf c1a2 d83e
000002b0: 6304 9abe 4bb4 83be 7786 23bf 7da1 673f
000002c0: eca5 bb3e 598a 803e 1f5d 9cbe 41ea 68bf
000002d0: 8881 e5be 89d5 98bf a8e4 20bf 635b a8bf
000002e0: f013 4a3f 6760 873f d1ca e23d 9992 833f
000002f0: 6e98 2d3f 0eb2 313f 9c6b bd3c b463 c73e
00000300: 7b0a 64bb aa31 0ebf 9257 00bf 2515 87bd
00000310: 0185 1dbf 2287 11bf 4b99 103f 0aec b83e
00000320: e1c5 3f3e d154 603e be30 4f3c 2307 a8be
00000330: c10a 813e f167 72bc 287a b4be cbde 4b3f
00000340: d919 1d3c 2546 2cbe 7079 0b3f 20f4 a23c
00000350: fb9c 8fbe 822c 1d3e b25a a4be 5a77 a0be
00000360: 212f 503e 9bee 7ebb 72d1 57bf 2e6d 26bf
00000370: 5576 75bf 3a46 d33f 24d9 ef3e 3e38 ca3d
00000380: bea5 9a3f d3e5 273d 2187 223d 9420 213d
00000390: 204f 9dbf 878e d8bf f12f e33f e812 40bf
000003a0: 3667 8abf 97c6 983f 307f 3c3e bbdd c43e
000003b0: 026c 4e3e cdc2 66bf f349 1cbf e2d6 fa3f
000003c0: 5d78 78bf b936 3ebf 3a86 7a3f ab0b 6cbe
000003d0: b590 72bf 3b7a 6f3f 2119 76be 895f ef3f
000003e0: ad58 7bbf 46f6 d7bd ac18 183f 6c81 1cbf
000003f0: 25d3 363e 648e 58bf f86c 363e 05ad 233d
0.20695302 0.24630454 0.19521345 0.0076272297 0.55259055 0.18147199 -0.29839137 -0.5087706
0.03138939 0.051145267 0.1734766 0.4031261 -0.10433234 0.08763558 0.039130118 -0.48502034
-0.8530328 -0.37682915 0.58586407 0.65649533 0.650521 0.007819622 0.4117949 -0.17269626
-0.24642317 -0.83361065 -0.75724465 0.69234306 0.27618 0.858431 -0.21893048 -0.7833793
-0.12668012 -0.6558383 -0.8538753 -1.0523218 -0.10766842 -0.16637678 -0.10468353 0.37565076
0.0952201 0.05645874 0.29381725 0.31427583 -0.37821013 -1.1148845 -0.6581711 -0.72935987
0.0072872215 0.87651795 0.9065528 0.28543288 1.133754 0.88816357 0.19123663 0.63558435
0.5686425 0.10247395 -0.050968405 0.19052206 -0.19828549 -0.11525464 0.20742546 0.15484592
-0.33067104 -0.38040173 -0.13643123 -0.85325027 -0.8536689 0.4634063 -0.14622734 -0.1863113
-0.13135809 0.04276352 -0.107167795 -0.0018978808 -0.3506086 -0.21754421 0.09921826 -0.1413935
0.35433322 0.17840005 0.01073855 -0.30293882 0.15434217 0.10243897 -0.33896288 0.07150053
-0.06145352 -0.5123764 -0.250786 0.02360953 -0.29093865 -0.26487738 -0.3418837 -0.42546827
-0.06989238 -0.33775848 -0.6053804 -0.016168006 0.58824223 0.4385511 -0.16533077 0.769875
0.07584033 -0.33843073 0.59605336 -0.25289193 -0.46500415 -0.6664426 -0.6428713 0.5635059
0.060116056 0.35443658 1.0604101 0.9368604 -0.06875577 -0.097752325 -0.0945309 0.21202104
-0.74570566 -0.99282765 0.40154922 -0.30686817 -0.28319737 -0.40087035 0.21474999 0.65329397
0.9506918 -0.39516696 -0.014667565 0.82111603 -0.98530346 -0.69467545 0.015209407 0.13020664
0.30150262 0.37964123 -0.006997338 -0.12627815 0.28266528 -0.09020176 -0.22942361 -0.67024046
-0.60342866 -0.22901951 0.31403548 -0.034226544 0.16722785 0.7298888 -0.062100362 0.21696289
0.35214883 -0.48411417 -0.9522114 -0.6364248 -0.13571264 -0.71069753 -0.19448964 0.46737993
0.44169667 0.4273886 1.1514072 0.5634418 0.3979008 -0.08445292 0.8386223 0.3426032
0.020618472 -0.7541798 -1.6731727 0.4231167 -0.30081472 -0.2572349 -0.6387705 0.90480787
0.36650026 0.2510555 -0.30539796 -0.90982443 -0.44825387 -1.1940166 -0.628489 -1.3152889
0.7893667 1.0576295 0.110738404 1.0279113 0.67810714 0.69412315 0.023122601 0.38943255
-0.0034796286 -0.5554453 -0.5013362 -0.0659583 -0.6153107 -0.5684682 0.56483907 0.36117584
0.18727829 0.21907355 0.012645898 -0.32817945 0.25203517 -0.014795289 -0.35249448 0.7963683
0.009588682 -0.16823633 0.54482174 0.019891798 -0.28049454 0.1534901 -0.32100445 -0.31341058
0.20330478 -0.0038899544 -0.84303963 -0.65010345 -0.95883685 1.6505806 0.46845353 0.098740086
1.208183 0.04099066 0.03967965 0.03933771 -1.2289772 -1.6918496 1.7749006 -0.7502885
-1.0812747 1.1935605 0.18407893 0.38450417 0.20158389 -0.9014099 -0.6105034 1.9596827
-0.9705866 -0.7430225 0.97861063 -0.23051326 -0.94752055 0.93545884 -0.24033023 1.870103
-0.98182184 -0.1054502 0.59412646 -0.6113498 0.17853983 -0.8459227 0.17815006 0.039959926

layer1.0.bn1.weight f4 [16]
00000000: 8551 a23f cc15 413f fb3d 813f 338c 833f
00000010: 42d5 743f a17a 853f 6680 a73f fedb 8b3f
00000020: e896 d63f 51ec e23f 6774 843f fcbd a23f
00000030: 2017 993f b621 ab3f ae3e 933f 2779 063f
1.2681128 0.75423884 1.009704 1.027716 0.95637906 1.0428048 1.3086059 1.0926511
1.6764803 1.7728368 1.0348023 1.2714229 1.1960182 1.3369663 1.1503503 0.52528614

layer1.0.bn1.bias f4 [16]
00000000: 69ed cf3c f0bc d13e c27f bcbe 2e28 1ebf
00000010: 4df6 883e d863 13bf d333 ee3e 431e 9ebe
00000020: 30e9 6a3f 9df4 d83f 22d4 fd3e 6dcf 2a3f
00000030: 3f86 2a3f f571 a03f 1d5b 423f 8e55 123f
0.02538176 0.4096446 -0.3681622 -0.6178006 0.26750413 -0.57574224 0.46523914 -0.30882463
0.91762066 1.694965 0.49575907 0.66722757 0.66611093 1.2534777 0.7592028 0.57161796

layer1.0.bn1.running_mean f4 [16]
00000000: 36e9 fa3b 370e 23be 5d36 d53d 57b1 86bd
00000010: ff0a 5b3c f5fa 173e 7c1b 6dbc 6eb5 53bd
00000020: ae5c 4abb 5d86 aabc f8f6 0b3d 4195 e5bd
00000030: 87d3 3d3c d849 733b 31ce 923d 6498 4dbe
0.0076571954 -0.15923391 0.104107596 -0.06576794 0.013369321 0.14841826 -0.014471885 -0.051686697
-0.0030877995 -0.020816023 0.034171075 -0.112101085 0.011586077 0.0037122872 0.07168234 -0.20077664

layer1.0.bn1.running_var f4 [16]
00000000: 7497 a53f 9764 103f 2228 113f 1e4c 493f
00000010: 7dad ec3e 1db8 133f 5bf2 f13e 867e 863f
00000020: 4add 5540 0e75 243f 62e6 f13f 6428 0b40
00000030: df29 b63e 9123 ae3f 3101 2b3f 688f 793f
1.2936845 0.5640349 0.5670186 0.7863177 0.4622611 0.5770281 0.47255215 1.0507362
3.3416314 0.6424111 1.8898432 2.1743402 0.3557882 1.3604604 0.6679869 0.97484446

layer1.0.conv1.weight f4 [16, 16, 3, 3]
00000000: 3c0e de3d 4a31 173e cd4d 813e a8a5 5b3d
00000010: 7be1 88be 7684 9a3c ae03 673d 0b65 a4be
00000020: df6c 27be 8f8b 883e 6c01 b73e 38b9 6ebe
00000030: 76f4 b23e f071 d23b 473d 68be 07ea 52bd
00000040: f06e bebd 0dae 7fbe 821d 88bc 17f5 2e3d
00000050: cac7 cebd c1a6 6dbd 8379 ef3d 09eb c2bd
00000060: beda 593e 39b8 de3d 55f9 7fbc f454 973e
00000070: 1db2 acbc d679 ae3d 2433 403e 5782 573e
00000080: 0ece 6fbe a06e a3ba 50bc 6c3d b348 d8be
00000090: 57eb 94bd 32e6 9cbd 867b b3bd 4ed4 f1bc
000000a0: 9f7b b43e 820c 25be bb11 89be 030d bc3e
000000b0: 91eb d53c 9c7e babd 64e2 353e 9151 1a3e
000000c0: e0e7 debe 70d0 35be 21eb abbd 4376 04bf
000000d0: 5120 dcbd 0f20 97bd b5a0 81bc 39ee adbd
000000e0: 7329 22be 25b2 183f 74e9 28be 2322 62be
000000f0: 38dc 273e a744 093e e7b1 29be ddee 2dbe
00000100: 5162 043e 2964 0abe 03cf 56be 0adc 8bbd
00000110: 995d 2dbe b22d d7bb 2ec6 763e 4fd9 44be
00000120: c918 86bf 9bd2 6abe f186 13be 4100 93bf
00000130: e434 d03d f946 243f c6ad 43bf 34e3 1d3e
00000140: 4231 473f 8bca e93d 0dad 5ebe 7dd5 77bd
00000150: f922 893f f7d0 9ebe ec9f 81be 8296 4c3e
00000160: 82d8 59be ee27 fcbe 28b4 e13e 2f0c 8b3e
00000170: ad0f 943e 0199 5b3d acfc 1cbd e3dc 7b3e
00000180: e278 3dbe f009 9dbe c2f8 9bbe 12e3 093d
00000190: 6657 cebd 254f 01bf 730e 2c3f 6d03 bebd
000001a0: f95e 78bf 6c61 ce3e 1027 903e 7d0d 7cbf
000001b0: 63a0 1a3e 293d 44be 500d c3be 8d7e 8a3e
000001c0: 04e4 a3be 0eb8 0abd 4232 b1bd ee94 b6be
000001d0: 6cea d83d c9fb 82be 8365 cd3c 39be 923d
000001e0: 2082 e6be 793f babd d9cb 343f 9e4a 7dbe
000001f0: 8df5 cebe 128b 283f 9c45 3bbd c124 1b3c
00000200: 0e5e f23d a91e a1bd cf12 80bb ac46 1d3e
00000210: e793 cc3d 6f53 89be ff0f 06bf 3158 2c3e
00000220: d300 8b3d 0bf2 0ebd acfe 5a3e def0 48bc
00000230: be74 11be 3502 813d 977c 223e fd76 0c3e
00000240: 732a da3d 3ac6 fe3e 8638 a23e 40dc 8bbe
00000250: ec15 a7be f82b c4be 7893 90be 4007 69be
00000260: bee7 06bf a4e9 8cbe 51ea 34bf 272e 0ebf
00000270: 9302 7e3e 0246 503e a547 a3bc 10ad 063f
00000280: 0481 83bc dcba 6a3e 33d6 973e cb17 3c3e
00000290: 05e0 3e3d 5b0d bb3d f46d 663e 32ab 4bbb
000002a0: ce84 19bf 6aff ccbe 37b7 b7bd f3f1 133f
000002b0: 2307 a73e e0d5 883d b538 113e c8b6 b13e
000002c0: 34ed 063e 1413 a0be f33e 353c 916e 11be
000002d0: fcf6 9bbc 3365 3b3e 51d3 5ebe 937c b6be
000002e0: 4d4c 7e3e 9708 9f3e e5b1 1ebd 0b4b bf3c
000002f0: 99d5 263e 4c0d a53e 1b22 6fbb d59f bebd
00000300: 7e71 f0bd c938 473d 7023 6e3d 797b b7bd
00000310: a112 8abe 8d6a 8bbc bb29 5b3e 73be 683e
00000320: 1916 b8be 1317 12bf 47df a3be c52a 023f
00000330: a182 17bd 8d97 913d ccb8 1fbf 085f d6bc
00000340: 2838 05bf 7007 7abe 5bc4 2e3d 9771 cb3c
00000350: f3b9 00bf e27a 013e 37ec d4bd 6c5c c4be
00000360: baea 43bf 6c99 de3d 1468 7d3e c12c adbe
00000370: 8a16 573d da8a a43d f7c1 dc3e 5d2f efbd
00000380: d093 12bf e687 0d3f ee5c bbbe 8b86 7a3e
00000390: 8417 dcbd 9285 3ebf 33f4 abbd 46f3 24bf
000003a0: 7990 a73f 4a50 60be 6fd7 0fbf 5c4d 45be
000003b0: fcb0 89bb 6608 b53d e523 753d a48a 9abe
000003c0: d37b 8e3e f8f5 003d c6e8 18be e52d 9d3d
000003d0: 2a34 24be e7c8 fabd a1f5 63be d50b 58bc
000003e0: f855 eabe 8a20 9a3c 49b0 863e 75ba 293f
000003f0: 617d 663c 0892 b1be eea2 a6be a9c3 ccbe
0.10842559 0.14764896 0.2525467 0.05362478 -0.26734528 0.01886199 0.056399994 -0.3210834
-0.16350125 0.26668975 0.35743272 -0.23312843 0.34952134 0.006422274 -0.22679625 -0.051492717
-0.092985034 -0.24968739 -0.016615633 0.042714205 -0.100967005 -0.058020357 0.116930984 -0.09517486
0.2127485 0.108749814 -0.01562341 0.29557002 -0.021081025 0.08519332 0.18769509 0.21045814
-0.23418447 -0.0012468882 0.057796776 -0.42242965 -0.0727145 -0.07661094 -0.087637946 -0.02952018
0.35250565 -0.16118053 -0.2677134 0.36728677 0.026113303 -0.0910618 0.17762142 0.15070178
-0.43536282 -0.17755294 -0.08394457 -0.51742953 -0.10748351 -0.073791616 -0.015823701 -0.08492703
-0.15836124 0.59646827 -0.16495305 -0.22083335 0.163926 0.13405095 -0.1657177 -0.1698565
0.1292813 -0.1351477 -0.20977406 -0.068290785 -0.16930236 -0.0065667266 0.24099037 -0.19223522
-1.0476314 -0.22931902 -0.14406945 -1.1484452 0.10166338 0.64170796 -0.7643703 0.15418702
0.77809536 0.11415585 -0.21745701 -0.060506333 1.0713798 -0.31018803 -0.25317323 0.19979289
-0.21273997 -0.49249214 0.4408276 0.27157733 0.2891821 0.053612713 -0.038326904 0.2459598
-0.18503144 -0.30671644 -0.30463225 0.033663817 -0.10075264 -0.5051139 0.6720955 -0.09277997
-0.97019917 0.40308702 0.28154802 -0.9845808 0.15100245 -0.19163956 -0.38096094 0.27049676
-0.320099 -0.033866934 -0.08652164 -0.356605 0.105915874 -0.25582722 0.025072819 0.07165188
-0.45021152 -0.09094138 0.70623547 -0.24735495 -0.40421715 0.65837204 -0.04572068 0.009469212
0.11834346 -0.07867176 -0.003908492 0.1535899 0.09989148 -0.26821467 -0.5236816 0.16830517
0.067872666 -0.0348988 0.21386212 -0.012264458 -0.1420469 0.06299249 0.1586784 0.13717265
0.10652628 0.4976061 0.3168375 -0.27316475 -0.32633913 -0.38314795 -0.2823751 -0.22756672
-0.5269736 -0.27522004 -0.7067004 -0.5553917 0.2480567 0.20339206 -0.019931624 0.5260782
-0.01605273 0.22922844 0.2965561 0.18368451 0.04660036 0.09133407 0.22502881 -0.0031077382
-0.5996827 -0.40038615 -0.08970492 0.5779106 0.32622632 0.066814184 0.14181788 0.34709764
0.13176423 -0.31264555 0.011062372 -0.14202334 -0.01903867 0.18300323 -0.21760298 -0.35641918
0.24833794 0.3106124 -0.038743872 0.023351213 0.16292419 0.32236707 -0.0036488834 -0.09307829
-0.11740397 0.04863814 0.058139265 -0.089590974 -0.26967338 -0.01701858 0.21402638 0.227289
-0.3595436 -0.5706646 -0.32006285 0.5084651 -0.03698981 0.07108984 -0.6239135 -0.026168361
-0.5203881 -0.244169 0.042667728 0.024834437 -0.50283736 0.12644532 -0.10396617 -0.38351762
-0.7653004 0.10869107 0.24746734 -0.33823207 0.05251173 0.08034296 0.43116733 -0.11678956
-0.57256794 0.5528549 -0.36594337 0.24465387 -0.10746673 -0.7442256 -0.08396187 -0.64433706
1.3090965 -0.21905628 -0.561881 -0.19267792 -0.0042020064 0.088394925 0.059848685 -0.301839
0.27828845 0.031484574 -0.14932546 0.07674769 -0.16035524 -0.1224535 -0.22261669 -0.013186415
-0.45768714 0.018814344 0.2630637 0.66300136 0.014067979 -0.34681726 -0.3254618 -0.39993027

layer1.0.bn2.weight f4 [16]
00000000: db0a 4b3f 6462 523f f1de 143f 52d6 2c3f
00000010: c127 353f a880 6c3f 5b9b 013f d786 183f
00000020: 6ff3 303f 348a 483f 5a70 2a3f 38db 093f
00000030: feab 313f 2e2d 4e3f 1a3b 383f a5d3 0f3f
0.7931344 0.8218138 0.5815268 0.67514527 0.70763785 0.92383814 0.5062768 0.5958075
0.6912145 0.7833588 0.66577685 0.53850126 0.69403064 0.8053769 0.7196518 0.5618232

layer1.0.bn2.bias f4 [16]
00000000: 91b0 21be c265 1e3d 7682 16bd 2fa8 d5be
00000010: 96f3 acbd c053 a5be 1f25 5abc 1ff3 203f
00000020: a0b8 a3be ad51 16be 7865 ebbd 8d5e 943e
00000030: 33e8 b0be 57c3 40bd 195d d0bd 3b76 4f3e
-0.15790011 0.038671263 -0.03674551 -0.41729876 -0.08444898 -0.3229046 -0.013314514 0.62870973
-0.31976795 -0.14679594 -0.11493963 0.28978387 -0.34552154 -0.04706129 -0.10174007 0.20259945

layer1.0.bn2.running_mean f4 [16]
00000000: d30f 71c0 3c14 a9c0 5060 463f b1f7 a0c0
00000010: e295 c0c0 a569 afc0 6be3 f0bf e450 1bbf
00000020: 3794 03c1 9930 22c0 573a a0c0 9eac ebc0
00000030: 4c2a 4bc0 5125 1cc0 7ba7 65c0 1678 09c1
-3.7665908 -5.28372 0.7749071 -5.030236 -6.0182962 -5.481646 -1.8819402 -0.60670304
-8.223685 -2.5342162 -5.0071216 -7.3648214 -3.1744566 -2.4397776 -3.5883472 -8.591818

layer1.0.bn2.running_var f4 [16]
00000000: 0ba2 6942 3e56 5942 a2a4 f541 08b7 9541
00000010: f9e5 ff41 301b 4942 2f73 a841 d46e d941
00000020: 6673 7a41 4f2a df41 8c48 b641 63a2 dc41
00000030: df17 6141 fb16 3642 41d2 1d42 3fda 9241
58.408245 54.33422 30.705387 18.71437 31.987291 50.27655 21.056242 27.179115
15.653173 27.895658 22.785423 27.57929 14.068328 45.52244 39.455326 18.356565

layer1.0.conv2.weight f4 [16, 16, 3, 3]
00000000: 1939 ab3e e98f b9be 7afd d8be c27c f53a
00000010: 474d c4bd ddd0 6abe f1f5 1bbe 7480 65be
00000020: ec68 50be f512 463f 2cd9 86be 6a59 58bf
00000030: 7f58 303f b990 f6be 4d27 22bf ceb3 a93e
00000040: f011 8e3d bff5 8abe c33e 55be d026 533e
00000050: 2bfa 933e 122f 753d c941 2b3e 0ddc 093f
00000060: 1826 aa3e ba84 9ebe 1aba 773d 479a 693e
00000070: 4ce4 913d 7a19 6abe a5c0 be3e ec88 af3e
00000080: 9844 ecbe 19dd d93e d4aa 2c3e fc1f 73be
00000090: af43 85be 4980 a03d f612 8b3d 1c5b 0bbf
000000a0: 32d7 d43d 7582 a23e d90e c1be 289a eebe
000000b0: c915 dabd a334 80be 6a28 ad3e 0cc3 f73e
000000c0: b5ee 0dbd d0b3 343f f3e3 3a3f 8e5d 27be
000000d0: da18 cc3d 9961 acbd 12a3 573e c863 813d
000000e0: ba87 4cbe ee3b 3ebd 0016 20be 5847 34bf
000000f0: 0074 fb3d 6e50 47be 1185 70be 4b65 aabe
00000100: 8bc5 10bf 417f ecbe e7ff bd3d c48b a3bc
00000110: 5cca 09bf a1bd 2cbd d800 5bbd 5f48 aebe
00000120: 294f 9d3b b015 70be 3964 9b3e 8fd7 bc3e
00000130: 95ce 63bd aff5 55bc 1ec3 f03d d7ab 893b
00000140: 7e24 c7bb 3c8b 8bbe 9860 64be 8f93 9ebe
00000150: bcf1 bc3e 5f2a e3bd fc98 8c3e 7c18 35be
00000160: 82ff bcbd 9f54 8c3e 322c cb3e 3ba5 83be
00000170: fc7e e1be 8de0 3d3e 961a 10bf 9dc9 05bf
00000180: 0ece 073f a250 b4be 4fe1 c8be 9a2c cb3d
00000190: 2800 b9bc 4488 15be 28f0 323e 297b 063d
000001a0: 7e76 9b3e d95e 993e b6e9 bcbd 20d1 9bbd
000001b0: a011 5fbe ff82 40ba 8014 84be 2f18 153e
000001c0: 6e13 4f3d 17be 673e 218c 773c 7d2d d6be
000001d0: 4355 563e 9066 60bd bed2 afbe 7734 6bbe
000001e0: cd3c 753e be03 243e 435b 963d 1a44 1ebe
000001f0: 2e4f c63e 552b 503e 5794 993d a039 e7be
00000200: e972 f4be 2138 ec3d e3b3 0bbf cbcf 23bf
00000210: e7cc 1c3f f92d aabe eb48 9fbe f65e b4bc
00000220: 2b09 3f3d 717a 5dbe 5aec e3be 7ce3 cc3e
00000230: f82a 833e ce28 12be 36a8 d7bd eb83 153e
00000240: 27a1 52bd 133d 80bd 5f6d b2be fa43 1ebe
00000250: 7edf ab3e 995f a83e e3f4 283b 74cc f73d
00000260: 85df ed3e c877 f6bd 3708 823e 13be 4ebe
00000270: 5d1c 05be 5281 8d3f 6fad 9cbe c967 dabe
00000280: 4741 4cbe 7b54 d03e ec02 f5bd 7977 b9bd
00000290: 27b1 db3d c73f e43c 918f 863e 7d70 f23c
000002a0: be03 9e3b 2a20 993d edf9 9cbe dd16 febc
000002b0: 4330 3cbe f73e bb3e 178d 22be c189 ebbe
000002c0: 2ebe 4b3e 44d1 23bd 691b f1be be64 603d
000002d0: 5ab9 3abe 1454 36be 3de3 ad3e fef8 98be
000002e0: 5854 263d c119 83be ee74 783e 31b8 dd3e
000002f0: c2b5 abbe f6a9 29be d0f5 67bd 69d8 95be
00000300: 36cf 26be fcc2 e23e 0b65 8d3d e1dd c2be
00000310: 5d5d 373e 3002 dd3e 3b6d 05bd 922f b5bd
00000320: c856 81be b138 14be 16d2 fdbe f6f0 bdbe
00000330: 39b0 e9bc 55ca 32bf c828 54be 3ff7 e9bd
00000340: 91c4 ef3d 39f0 efbe 78cd e43d c028 25bf
00000350: a882 72bd 1c7e 35bd 5e20 83bf 5ece 253f
00000360: fff8 073e bb42 a03d c8f1 95be 1239 303d
00000370: f61d 3abc da56 f23c 2180 bfbd 3ddd 8b3c
00000380: ca0a 31be a59f 8fbe 65d3 1f3d 02f0 5abe
00000390: 8421 99be 47df 87be 898b 26bd a1a7 523e
000003a0: 7639 e13d 8f5f 2f3e 9b44 3b3e 3ffb d7bd
000003b0: ef7a ccbe cb54 74bd d6ca 86be 0db3 d5bd
000003c0: 29b2 533e dc9f 13bd 99a0 04be 164b c9bd
000003d0: 7d37 fdbe a59d febd 256e e83e d99a 123c
000003e0: 2037 0b3e 83a0 cabe 3fd5 833e ec89 22bf
000003f0: 6ca7 bbbe 60b0 55be 0d78 a0be 1580 c3be
0.33442 -0.36242607 -0.42380887 0.0018729197 -0.09585052 -0.22931238 -0.15230538 -0.22412282
-0.20352525 0.77372676 -0.26337564 -0.84511435 0.68885034 -0.4815729 -0.6334122 0.33144993
0.06937015 -0.27140614 -0.20824723 0.20620275 0.289018 0.059859343 0.16724314 0.53851396
0.33232188 -0.30960637 0.060480215 0.22812758 0.07123622 -0.22861281 0.3725635 0.3428415
-0.46146083 0.42551497 0.16862041 -0.2374267 -0.260282 0.078369685 0.06790726 -0.54435897
0.10392608 0.31740156 -0.3770664 -0.46601987 -0.106486864 -0.2504016 0.33819896 0.48390996
-0.034651477 0.7058687 0.7300407 -0.16344282 0.099656776 -0.08417053 0.210583 0.0631786
-0.1997365 -0.046443872 -0.15633392 -0.7042136 0.122779846 -0.19464275 -0.23488261 -0.33280405
-0.56551427 -0.46190837 0.09277325 -0.019964106 -0.538244 -0.04217303 -0.0534676 -0.3403959
0.0048006964 -0.23445773 0.303499 0.36883208 -0.055616934 -0.013059064 0.11755966 0.004201393
-0.0060773483 -0.27254665 -0.22302473 -0.30971953 0.3690318 -0.11092066 0.27460468 -0.17685121
-0.09228422 0.2740831 0.39682156 -0.25711998 -0.44042194 0.1854269 -0.56290567 -0.5226076
0.5304879 -0.35217768 -0.39234397 0.099206164 -0.022583082 -0.14602762 0.17474425 0.0328323
0.3036384 0.29955176 -0.09224264 -0.07608247 -0.21784067 -0.00073437387 -0.2579689 0.14560007
0.05055564 0.22631107 0.015109093 -0.4183158 0.20930962 -0.05478531 -0.3434047 -0.22969232
0.23948975 0.16017053 0.073416255 -0.15455666 0.38732284 0.2032903 0.07498997 -0.45161152
-0.4774392 0.11534143 -0.5457136 -0.6398894 0.61250156 -0.332382 -0.3111032 -0.022017937
0.046639603 -0.21628739 -0.4451626 0.40017307 0.2561872 -0.14273378 -0.105301306 0.14601104
-0.051423218 -0.06261649 -0.3484907 -0.15455619 0.33568949 0.32885435 0.002578073 0.12099543
0.46459594 -0.12034565 0.25396892 -0.20189695 -0.12999101 1.105509 -0.3060107 -0.42657307
-0.19946776 0.40689453 -0.11963448 -0.09055991 0.107271485 0.027862443 0.26281407 0.029594654
0.0048222234 0.07476838 -0.30659428 -0.031016761 -0.18377785 0.36571476 -0.15874134 -0.46003535
0.19896767 -0.039994493 -0.47091225 0.054783575 -0.18234769 -0.17805511 0.33962432 -0.29877466
0.04060778 -0.25605586 0.24263355 0.4330459 -0.33537108 -0.16568741 -0.05663091 -0.2926667
-0.16289982 0.44289386 0.06904038 -0.38059905 0.17906709 0.4316573 -0.032574873 -0.08846964
-0.2526152 -0.14474751 -0.49574345 -0.370979 -0.028526412 -0.69839984 -0.20718682 -0.114241116
0.11707414 -0.46862963 0.111720026 -0.64515305 -0.059206635 -0.04430972 -1.0244253 0.64768016
0.13278578 0.07825228 -0.29286027 0.043023176 -0.011359682 0.02958243 -0.093506105 0.017073268
-0.17289272 -0.28051487 0.03901996 -0.21380618 -0.29908383 -0.26537535 -0.040660415 0.20571758
0.10997288 0.17126296 0.1828789 -0.10545968 -0.3993754 -0.059651177 -0.26326627 -0.10434542
0.20673431 -0.036041126 -0.12951888 -0.09828775 -0.49456397 -0.12432412 0.45396534 0.008948051
0.13595247 -0.39575586 0.2574863 -0.634917 -0.3665117 -0.20868063 -0.3134159 -0.38183656

layer1.1.bn1.weight f4 [16]
00000000: 4bf5 a83f cac7 c83f c53f 883f bebe 3d3f
00000010: 10ad b93f 5594 ac3f e14b e63f 6ead 613f
00000020: bffc d53f 697e a13f bd0a b73f b222 8c3f
00000030: 1dcf 883f ffcc c23f 5659 5b3f 34ef 9f3f
1.3199857 1.5685971 1.0644461 0.74119174 1.450594 1.3482767 1.7991906 0.8815526
1.6717757 1.2616702 1.4300152 1.0948088 1.0688206 1.521881 0.8568319 1.2494874

layer1.1.bn1.bias f4 [16]
00000000: f42a 2f3e 7302 cc3e 49fc 51bd d0a4 b0be
00000010: 917b 84bd 1a10 e9be 30bc 393e 580a a5bc
00000020: 4b13 8e3f 3e84 01be 3ab0 a4be f157 d33b
00000030: 9c3c af3e 0780 a03d cb6f 1f3f 9217 c5be
0.17106229 0.3984562 -0.05126599 -0.34500742 -0.06468881 -0.45520097 0.18138194 -0.020146534
1.1099638 -0.12648103 -0.321657 0.0064496924 0.3422593 0.07836919 0.6227996 -0.38494545

layer1.1.bn1.running_mean f4 [16]
00000000: 1c2a 0ac0 c9b3 0dc0 1db6 213e 9392 393e
00000010: d30a 9cbf e847 203e 6f19 04bf 5657 94be
00000020: fd7a 96bf 44e1 3dbf 47a6 e6bd a57c 03c0
00000030: c4e2 c4bc 2c03 633f bba2 933f 3c7a c5be
-2.1588202 -2.2140982 0.15792127 0.1812232 -1.2190803 0.1565243 -0.5160131 -0.28972882
-1.1756283 -0.74171853 -0.11262184 -2.0544827 -0.024033912 0.88676715 1.1534036 -0.3856982

layer1.1.bn1.running_var f4 [16]
00000000: d392 8140 a855 8140 136a 9240 369d 5c40
00000010: fe4d 7040 b3de 5e40 9440 8f40 9a06 3a40
00000020: b144 c440 d7dd 4e40 4bce a140 ad60 5d40
00000030: 8036 4740 eee3 a940 fcb7 f03f 1553 0b40
4.049173 4.041706 4.5754485 3.4470954 3.7547603 3.4823425 4.476633 2.906653
6.133385 3.23229 5.0564322 3.4590256 3.1127014 5.3090734 1.8806148 2.176946

layer1.1.conv1.weight f4 [16, 16, 3, 3]
00000000: 8509 6b3e c9a6 573e 05f8 36bd 069f 823e
00000010: 5542 4a3d 54d6 683e a70a 63be 2b8a 85bd
00000020: c1f7 d43e be33 50bd 291f b43e aa64 883e
00000030: d089 4d3e bfd9 f7be a0fd cb3e dd28 3cbe
00000040: c767 1cbf 8a2a debe 6795 dabe 4307 d63d
00000050: 9c2a 353e 4da2 a7be 7d02 b83e eadc 8a3e
00000060: 7619 65be 963b 223f 7694 583e 70a3 3a3b
00000070: b570 9dbd 58f4 2d3e ec11 3fbe 9637 133d
00000080: 25cb 4f3d dfed 163c a106 b43d adca b23d
00000090: aa31 4cbc 4f44 453e da62 29be 44f9 e53e
000000a0: db97 01bd 5cbc 0dbe eff4 763e 9563 e6bc
000000b0: 00f7 c5be 6ba1 19bd c0a5 cabe f822 d9be
000000c0: 1470 623e 344a a8be de70 b9bd f828 a8bd
000000d0: b9ef d0be d4ae 07be 6bd1 66be 57e9 d8bd
000000e0: df86 d83e 99d6 6cbe 84f9 d4bd f389 e03e
000000f0: 9c6b febe 2341 6abe 2090 0f3f 3a9e c23d
00000100: 04f5 d83e 2f1d 263e 5ef4 94be 4308 803e
00000110: 4bad 55bd 27b8 8fbe eaed 163d b4bf 14bd
00000120: 1444 0dbb 1825 9abd b3fe b9bd c477 32be
00000130: a0dc 2d3d afbd e63d 14de a9be 7e54 423e
00000140: cd6a 3d3f 81ac c13c 598b 443e c789 46be
00000150: ab36 723d 45ce cf3e a553 53bd fb35 6e3d
00000160: e781 843e 3281 af3e 0a3d 2e3c 7ada 1e3e
00000170: e615 b33e 44c7 6c3d d61b 57bd f2e0 2abe
00000180: 9238 9f3d 24a6 b13c 7f89 7d3e f770 473e
00000190: ba2a 1ebb 7937 acbe 7a5f 2a3e 1b2b 1fbe
000001a0: c6b2 38bf 374f a13e 2ef1 163e 09b1 8ebe
000001b0: f1b0 13be 2cbc 23be 344f 493e 798d 70bd
000001c0: 1db5 68be f522 ed3e cfac 00bf 0e8f 75bd
000001d0: ca2b 3a3d bd8f 733e 5774 81be 0bdf 393d
000001e0: c64b 323d e2d7 ab3d 96cd b7be 814f 8cbd
000001f0: 5bb4 2f3c a6c6 28bf 6baa 4dbe 482e 15be
00000200: 0b92 4ebe 507b 723e ba3d c93e 7002 1e3e
00000210: 38ae bcbe 6a6b 0dbd 0a53 c43d ab86 5abe
00000220: 0b02 1dbe b53c 7ebe bc1b 883e 7413 d13d
00000230: af4a 913d e3c9 debe b8b6 1ebe 9b3b 7bbe
00000240: a42c 3b3e dfad 9abc 7d25 3dbd 5144 8fbd
00000250: 0565 083b 5af1 ff3d db80 833e cade 32bd
00000260: c48d 59be 89f8 9bbe 848a aa3e 0a8b eebd
00000270: 7867 cf3e 0ced 623e 5481 0dbd ff39 a9bc
00000280: eb76 5ebe 285b 8e3e 0679 ef3d f6b3 f43d
00000290: 2ecf 363e 2adb 19be d3bd 163e ca7e 80be
000002a0: 3ef7 2abe 73b1 78be 52db f8be 12c0 7dbe
000002b0: a2af 8abe 0264 05be f946 15be 6ad2 0cbe
000002c0: 6b3c d23d 8e85 273e 6a05 253e 3122 733e
000002d0: 1111 49be 76f9 313c cefb 613d 4b47 f1bd
000002e0: 51f8 af3d bfdb c9bd 0dea 64be 2c10 c63b
000002f0: 12c3 c83d 36cc 323e 37ce 1d3e 4479 ab3d
00000300: 28d6 b13c 3f02 cdbd 665f 59bc 5586 85ba
00000310: 71ae c23d 4e72 a7be 6563 9fbe 2a08 723e
00000320: dde4 293e 0ca4 9c3e 9763 373e 4f39 0fbf
00000330: 2c68 4bbe a1b1 2abe 742c 4e3e 072a 903c
00000340: 754c 3dbc acac 2f3e 5ab0 07be 90c7 95be
00000350: 620e bcbd 3597 9abd 5b67 25bd a58e 66bd
00000360: 0ea5 363e 3564 153e 7c6b e5bd 6383 1c3e
00000370: 9b77 57be 1833 723e f370 e6be 5614 babe
00000380: e7de d43d 78fd 883d 5d91 a93e 75d1 393e
00000390: b179 653e fb8b 493e 8050 313d 0109 27bd
000003a0: ef6a 34bd 3d15 e83d 5df0 943d 3891 363e
000003b0: fe19 df3e 4e39 003f 320c 03bb aa36 323b
000003c0: 0a84 33be 04df 3ebe 8dc5 06be 0217 e9be
000003d0: a312 a03e 1d3e 5f3e fbbb 9e3d 3ace 533f
000003e0: d4aa de3e 1481 143e 60ed e0bc c0cf 79be
000003f0: 6132 a43d e97b c13e 727d 00bc 3086 9cbe
0.2295285 0.21059717 -0.044670124 0.2551195 0.049379665 0.2273801 -0.22172032 -0.06520494
0.4159527 -0.050830595 0.35180023 0.266393 0.20072103 -0.48408315 0.39841938 -0.18374963
-0.6109585 -0.4339183 -0.4269211 0.10450604 0.17692035 -0.32741013 0.35939398 0.2712167
-0.22372994 0.6337217 0.21150383 0.0028478764 -0.07687513 0.16987741 -0.1865918 0.035941683
0.050730843 0.009211986 0.08790327 0.087300636 -0.012463013 0.19264339 -0.16541615 0.44916737
-0.03163896 -0.13841385 0.24116872 -0.028123656 -0.3866501 -0.037507456 -0.39579582 -0.42409492
0.22113067 -0.32869112 -0.09054731 -0.08210939 -0.40807894 -0.13250285 -0.22540824 -0.10591381
0.42290398 -0.23128738 -0.10399154 0.43855247 -0.49691474 -0.2287641 0.5607929 0.095028356
0.42374432 0.1622207 -0.29092687 0.25006303 -0.05216722 -0.28070185 0.036847986 -0.036315635
-0.002155547 -0.07526606 -0.09081783 -0.174285 0.042446733 0.11266648 -0.33177245 0.18977544
0.7399109 0.023641827 0.19193782 -0.19388495 0.059134167 0.4058706 -0.05159344 0.05815695
0.25880358 0.34278256 0.01063467 0.1551303 0.34977645 0.057807222 -0.05251678 -0.16687372
0.07774462 0.021685667 0.24759482 0.19476686 -0.0024134354 -0.33636072 0.16637984 -0.15543787
-0.72147787 0.3150575 0.1474044 -0.27869442 -0.14422967 -0.1598975 0.1965912 -0.05872867
-0.22725339 0.46315733 -0.50263685 -0.05995088 0.045451917 0.237853 -0.25284073 0.045378726
0.043529294 0.08390786 -0.35899037 -0.06851102 0.010724152 -0.65928113 -0.2008454 -0.14568436
-0.20172898 0.23679852 0.39304906 0.15430617 -0.36851668 -0.034526266 0.09586151 -0.21340434
-0.1533281 -0.24827845 0.2658366 0.102087885 0.07094323 -0.43513402 -0.15499389 -0.24534456
0.18278748 -0.018881736 -0.04617833 -0.06995452 0.0020812165 0.12497206 0.25684246 -0.0436695
-0.21245486 -0.30463055 0.33308804 -0.11647613 0.40508628 0.22160739 -0.034547165 -0.020657538
-0.21725051 0.27803922 0.11693005 0.11948387 0.1785247 -0.1502501 0.1472085 -0.25096732
-0.16695878 -0.24286442 -0.48604828 -0.247803 -0.27087122 -0.13026431 -0.14577855 -0.13752142
0.1026543 0.16359541 0.16115347 0.23743512 -0.19635417 0.010862699 0.05517178 -0.11781176
0.085922845 -0.09856366 -0.22354908 0.0060444083 0.09802832 0.17460713 0.15410696 0.08372739
0.021708563 -0.10010194 -0.013267374 -0.0010187129 0.09505928 -0.32704395 -0.3113052 0.23635927
0.1659121 0.30593908 0.17909084 -0.5594682 -0.19863957 -0.16669323 0.20134145 0.017598165
-0.011553873 0.17155713 -0.13250867 -0.29253817 -0.09182431 -0.07548372 -0.04038177 -0.05628838
0.17836401 0.14589007 -0.11202142 0.15284495 -0.2104172 0.23652303 -0.45008048 -0.3634364
0.10394078 0.0668897 0.33118716 0.18146308 0.22409703 0.19682305 0.04328966 -0.04078007
-0.044047292 0.11332176 0.07272408 0.17828834 0.43574518 0.5008744 -0.0019996283 0.0027193227
-0.17530838 -0.18639761 -0.13161297 -0.45525366 0.3126422 0.21801038 0.07750698 0.8273655
0.43489707 0.14502364 -0.02745694 -0.24395657 0.080174215 0.37789848 -0.0078424085 -0.30571127

layer1.1.bn2.weight f4 [16]
00000000: a27f 333f c962 103f 1106 203f 48ee 513f
00000010: 88a7 703f 0ef1 2c3f 578e 273f ba38 263f
00000020: 92c1 f13e 2772 3d3f ea6c 4b3f bcf3 333f
00000030: 2376 833f b25b 303f fa19 4a3f 4286 243f
0.7011663 0.56400734 0.62509257 0.82004213 0.9400563 0.6755532 0.6545157 0.6493031
0.47217995 0.7400231 0.79463065 0.70293784 1.0270427 0.68889916 0.7894589 0.6426736

layer1.1.bn2.bias f4 [16]
00000000: 7349 31be 2a90 07bd a1fd 43be f8ab b4be
00000010: 8eb6 b3be e1fe 4ebe 38b3 4abe c29d 0ebe
00000020: d530 28be 10c8 a5be 81a1 a0be ba1a 84be
00000030: 7348 a6bd e083 7dbe db58 8abe a690 e0bd
-0.17313175 -0.03309647 -0.1913972 -0.35287452 -0.35100216 -0.20214416 -0.19794929 -0.13927367
-0.16424878 -0.32379198 -0.31373218 -0.2580164 -0.08119287 -0.24757338 -0.27020916 -0.109650895

layer1.1.bn2.running_mean f4 [16]
00000000: 5d25 143d e74f e73e 6ea4 1bc0 8eec 51c0
00000010: d6ba 24c0 cec2 a4c0 d149 7cc0 9eb0 27c0
00000020: ca1e 0abe ef67 22c0 ac79 84c0 4412 81c0
00000030: 1407 2ac0 4176 993f 7c5f 03c1 809e e6bf
0.036168445 0.45178148 -2.431911 -3.2800632 -2.5739036 -5.14878 -3.9420054 -2.6201549
-0.13488308 -2.5375936 -4.1398525 -4.0334797 -2.656682 1.1989213 -8.210812 -1.801712

layer1.1.bn2.running_var f4 [16]
00000000: 3e44 3741 29c8 5041 17c6 fe40 98ae 8d41
00000010: b4e4 cd41 a535 0e41 7dc3 5541 f05e 1c41
00000020: 07e8 1b41 54f5 3a41 16ca 2b41 ff81 3141
00000030: 2c18 6d42 7c0b 6c41 adf2 8841 c961 0341
11.454161 13.048867 7.961681 17.71025 25.736671 8.888097 13.360227 9.773178
9.744147 11.684895 10.736837 11.094237 59.273605 14.752804 17.118494 8.211373

layer1.1.conv2.weight f4 [16, 16, 3, 3]
00000000: dbf3 0c3e d535 c13d 17df dd3e 6904 3bbe
00000010: aeea c7be e0a4 9cbe 3e2b 33be 2da9 d4be
00000020: 8837 fb3d 4ad1 f0be 1b24 d5bd 6268 bebd
00000030: a2a3 b83b 478d 113e 3706 5d3c 77ec 023d
00000040: 6b1b ed3d e64a cebd f114 e4be 32bc 8cbe
00000050: c16c a03d 4c72 ffbd 5b3d 75be 1ab9 5a3e
00000060: 96db 81bd ba95 853d 4515 aa3e f2da 6e3e
00000070: 5471 973e 7030 bebe 7db5 c33e 3a08 c23e
00000080: 137a dc3d f146 bc3e 2ece 7a3c b2a1 dabd
00000090: 9fe6 eabd e761 353f d7f0 003f ea75 323c
000000a0: a9e2 243e f8cb d6be c730 59be dd2e 703d
000000b0: 0936 29be f273 f63e 106d d93d 4ddc 7cbe
000000c0: 669a 343f b6fa 883e 4ab0 fabd 2239 103e
000000d0: 7234 6c3e 2721 d93d be7d ef3d 67d8 af3d
000000e0: a537 79be 9549 4b3d 173d 683c 9e7f a1be
000000f0: 4ce4 02bd 7d61 483e 2362 aabe ad0d 903e
00000100: e955 db3e da90 7a3c 4aa0 b33e e587 903e
00000110: 0e8a d7be ea31 f63d 671f c23d 1d3c c7be
00000120: 8eee 02be d8b6 c2bd 6a1b a7bd d0ec 37be
00000130: 5b4f 75be 8292 2abe b11b 723d cb53 bb3d
00000140: ce80 13be 53cd fbbd 9bd8 a03e b27f 48bc
00000150: 371e 273e 28ea b43e aacf b23e ba3c 833d
00000160: bc59 b13e 2ad4 cdbc 2b7f 53bf 77fa 42be
00000170: a817 8b3e 76f1 edbe 2380 573e 5849 0a3e
00000180: 61e3 d1be 9631 083e b009 103e 129e 953e
00000190: 79d7 a2be 8993 c9bd 4387 143f 5783 4c3d
000001a0: c737 d03e 54c7 673d b007 05be eb69 383d
000001b0: 67c3 0cbf f2c8 1fbe ae7e 1a3f ed03 cd3b
000001c0: aa00 bebc 93ed dd3e 0fb7 2b3b 42fc c93d
000001d0: f2d6 813e 98f0 a2be e227 f7bd 0899 cdbd
000001e0: 7fc2 de3e 924c 4cbd 63fa 403e f4ad ac3e
000001f0: 2da0 c33e 96f8 ca3d 85e6 413d 431a 10be
00000200: 76ae a8be c51f 58be a891 17be 3196 fdbd
00000210: 5edc a7be a282 ca3e 601d cfbd a1ec 1a3f
00000220: 4b70 193d 90e5 b63d 7ecf 173d 89fd 2c3e
00000230: e944 06be eb4c 2f3d 6b2b 803a 15dd ccbe
00000240: e69f 3dbe 7fda 93be 6331 2fbe 67da 833e
00000250: 4e96 2c3e 178d 86bd 698d 873e 5cd9 ee3e
00000260: dbd3 c23d 46a7 843d c26f 0bbf ae52 55bd
00000270: 0e8f 633d 217f 7bbe 1906 88be 0fdc 00bd
00000280: 0706 d0bd 532c 463a 5bd5 c33d 97f0 c6be
00000290: 73d4 77be 4c00 17bd 8c12 273e ed51 76be
000002a0: df12 e3bd bde2 a23e e921 983d 9fa8 913d
000002b0: 1ab2 0abf 4d7a 753c 2ebb 73bd 70df 98bd
000002c0: d336 2f3e f8ed b33e 5b69 b6bb 28ed bf3d
000002d0: 3109 303d 8607 b83d 9730 83be d653 e13e
000002e0: 9514 c33e 566c 023f 4a7d 3fbd a1b9 8fbd
000002f0: c4de a83e 540b 883d df00 3abe c08b 483e
00000300: c894 9e3d b196 873e 9e14 4d3d d95d 343e
00000310: a86d 3c3e 4ba1 20be 4c86 a4be 193e 7abe
00000320: 7609 363d 60b6 473c 5da8 88be 5ed1 533d
00000330: e420 d63e 0ff7 153e d138 833e a8a0 e63d
00000340: 43d1 d6be ba9e f4be 9e3f 5d3e dd4e 743d
00000350: 82e7 b53d 9008 343e 38ab a43e 4357 84bd
00000360: aa26 1fbe e7d0 49bf f842 35be bf45 c4be
00000370: 7878 9ebd 5f00 673e 967d 6b3c 2570 753e
00000380: 609b 473e 5dfa 53be f95f f5bd 6528 f2be
00000390: 1e12 8dbc 325f 13be deba 4dbe 484c 563e
000003a0: a7ef f33d d991 2b3e 9561 6dbd 78be 813e
000003b0: 5b8a d83d 4068 ba3e 449f 3d3e 52ae 8f3e
000003c0: 14c5 febd d4bb 293e 18a5 943e b52f d1bb
000003d0: 07df 8dbe fef1 0dbf 2610 79be 38b5 0cbe
000003e0: f06a d8be bd43 0abe 7820 32be a266 21bd
000003f0: 9b66 92be ca1d 233f 746a 0cbf 79dd b1bd
0.13764898 0.09434096 0.43334267 -0.18263401 -0.39046234 -0.3059454 -0.17496964 -0.4153532
0.12266451 -0.47034675 -0.10407277 -0.09297253 0.005634741 0.1421405 0.013490251 0.03196379
0.11577495 -0.100728795 -0.44547227 -0.27487332 0.07833243 -0.12472972 -0.23949187 0.21359673
-0.06340711 0.06522699 0.33219352 0.23325709 0.2957865 -0.3714633 0.38224402 0.378969
0.10765471 0.36772874 0.015307946 -0.10675372 -0.11469769 0.7085251 0.5036749 0.010892371
0.16102089 -0.4195249 -0.21210013 0.058638442 -0.16524519 0.48135334 0.10616505 -0.24693413
0.70548093 0.26753777 -0.12240656 0.14084294 0.23066881 0.106020264 0.11693905 0.08586197
-0.24337633 0.04963072 0.014174721 -0.31542677 -0.031956002 0.19568439 -0.33277997 0.28135434
0.42838982 0.015293324 0.35083228 0.2822868 -0.42097515 0.12021239 0.09478646 -0.3891305
-0.12786314 -0.09507531 -0.08159526 -0.1796143 -0.23956053 -0.16657451 0.05910844 0.091468416
-0.14404604 -0.12295022 0.31415257 -0.012237476 0.1632012 0.35334897 0.3492406 0.06408067
0.34638774 -0.025125582 -0.8261592 -0.19040857 0.27166486 -0.46473283 0.21044974 0.13504541
-0.4099379 0.13300166 0.14066195 0.2922216 -0.31805018 -0.09842593 0.58018893 0.049929943
0.40667555 0.05658658 -0.12991214 0.045022886 -0.5498566 -0.15603998 0.6034955 0.0062565715
-0.023193676 0.43345317 0.002620164 0.098625675 0.25359303 -0.31824183 -0.12068154 -0.10038954
0.43507764 -0.04987771 0.18845515 0.33726466 0.38208142 0.09910695 0.04733898 -0.14072518
-0.32945603 -0.21105869 -0.14801657 -0.12382162 -0.32785314 0.3955279 -0.10113025 0.6051732
0.037460607 0.08930504 0.037063114 0.16893591 -0.13112225 0.042797964 0.0009778565 -0.40012422
-0.18518028 -0.28877637 -0.17108683 0.25752565 0.16854212 -0.065698795 0.26475075 0.46650207
0.095130645 0.064772174 -0.54467404 -0.052080803 0.05555635 -0.24560215 -0.26567152 -0.031459864
-0.101573996 0.00075597054 0.09562179 -0.3885543 -0.24202137 -0.036865517 0.16315669 -0.2405469
-0.11087584 0.31813613 0.07428343 0.0711224 -0.5417801 0.014982772 -0.05950468 -0.07464492
0.17110758 0.35142493 -0.0055667586 0.09371406 0.042977516 0.0898581 -0.2562301 0.44009274
0.3810164 0.5094656 -0.046750344 -0.07017828 0.32982457 0.06642786 -0.18164395 0.1958456
0.077432215 0.26482156 0.05006849 0.17613925 0.18401206 -0.15686528 -0.3213371 -0.24437751
0.044442616 0.012189478 -0.2669095 0.05171334 0.4182197 0.14645027 0.25629285 0.112611115
-0.4195653 -0.4777735 0.216063 0.059645522 0.08882047 0.17581391 0.3216188 -0.06461956
-0.15542093 -0.78834385 -0.17701328 -0.38334462 -0.07737821 0.22558735 0.014373204 0.23968561
0.19492865 -0.20700975 -0.11981196 -0.47296444 -0.017220553 -0.14391783 -0.20090815 0.20927536
0.119109444 0.16754855 -0.05795439 0.2534063 0.10573264 0.3640766 0.18517786 0.28062683
-0.124399334 0.16575557 0.29032207 -0.006383861 -0.2770922 -0.55447376 -0.24322566 -0.13741004
-0.42269087 -0.13502403 -0.17395198 -0.03940452 -0.28593907 0.6371733 -0.54849935 -0.08684821

layer2.0.bn1.weight f4 [16]
00000000: d40e a83f dc21 d73f 6296 9a3f 4ba0 913f
00000010: a967 af3f 4ae8 b43f a0c7 ac3f 90cb a33f
00000020: 382d d73f 100b af3f 2fdc b33f fe8c a43f
00000030: 8eea 933f bb9d bc3f a1ef 9b3f b7d4 a33f
1.3129525 1.6807208 1.2077143 1.1377043 1.370351 1.4133389 1.3498421 1.2796497
1.6810675 1.3675251 1.405157 1.2855527 1.1555955 1.4735636 1.2182504 1.279929

layer2.0.bn1.bias f4 [16]
00000000: da9d 67bd 34ff 92be b327 603d 2500 d43d
00000010: 3157 203f facd d0be 4e92 8c3e d3c9 65be
00000020: 2acb 62be 5f5b 043f 25c6 e23d 5cab f13d
00000030: 9d67 b23d 359b 223d 0615 023f 15a6 873d
-0.056547023 -0.2871033 0.05472536 0.1035159 0.62633044 -0.40782148 0.27455372 -0.22440271
-0.22147813 0.5170192 0.11072949 0.11800262 0.08711169 0.0396988 0.5081333 0.066234745

layer2.0.bn1.running_mean f4 [16]
00000000: bd0a bebf 0b02 0cc0 e3ef 713f 2b2f 263f
00000010: 3028 eabf fcf5 d23e a891 1dbf fedd 89bf
00000020: 200f afbf bd38 babf 6b5e f2bf 5934 f8bf
00000030: 1da7 463f a275 383f 7daf 6e3f 91b7 dabf
-1.4847027 -2.1876247 0.94506663 0.6491572 -1.8293514 0.41203296 -0.6155038 -1.0770872
-1.3676491 -1.4548565 -1.8935064 -1.9390975 0.77598745 0.72054493 0.93236524 -1.708727

layer2.0.bn1.running_var f4 [16]
00000000: 821e 7440 a3e4 ae40 2c90 9140 0d0e 8b40
00000010: 20d5 b240 7946 8b40 5c5e 8740 cf59 7140
00000020: d8b2 7e40 a450 8f40 1274 c940 5920 7340
00000030: 97f7 7a40 317e 9e40 431d 5840 db5f 5440
3.814362 5.4654098 4.548849 4.345465 5.588516 4.3523526 4.2302685 3.7711065
3.9796658 4.478594 6.2954187 3.7988493 3.9213617 4.952904 3.376786 3.3183506

layer2.0.conv1.weight f4 [32, 16, 3, 3]
00000000: fe45 74bd b35d e43d 9d9f 65be 8ed1 3b3e
00000010: 8451 28be 29fe b73e 1f3d c4bd 43a9 88be
00000020: 6269 50bb ebce 0fbe 6c83 15be 8114 a8bd
00000030: c318 5dbe 6508 81bc 419c 3cbe 21fc 9fbe
00000040: 1fcb 5ebe be4c 04bd 9719 903d d89b 903d
00000050: 175b 49bd c6e1 133d add6 993b ad03 853e
00000060: 9bce b13c d344 783e 2abf 983e 3376 6e3e
00000070: e8a0 a63d 180e a1bd b56c aa3c 7e3b ab3d
00000080: 435b 0b3e 73bb b93c 7142 18be f30f 7b3e
00000090: 90f2 17be 638c eb3d 42fc a53d a29d 883b
000000a0: 8d16 c53d 25dc e93d 0e37 1e3c bf43 ee3d
000000b0: 6c1a 233e 0ee9 dc3e 3e20 a5bd aedb 39be
000000c0: 22c0 d23e ce46 363b b0f9 32be 28a2 f53d
000000d0: 6f44 26bd 891c cc3c cda5 813d 3dc0 c73d
000000e0: 0c95 54bd f390 b83e d522 9c3e 5980 1b3e
000000f0: 6cb2 f83d adc2 153e 7d2a 233e b7ac 42be
00000100: 7a08 97bd 1496 babc d8d5 d8bc fc2e 213e
00000110: 3f70 1e3e 28ee 00be a5d1 513d 36f0 503e
00000120: 56d1 8f3e d2d8 483e 0a57 aa3e 7153 fabd
00000130: 5640 5ebe 6bb3 dcbd 26d8 47bd adf4 86be
00000140: 0f77 3abe 9447 8a3b a1b5 53bd eb79 79bd
00000150: 3304 853e 380e cf3d 64e4 053e 5909 743e
00000160: 7f16 573d 89b2 8fbe 44da 32be d9fa acbd
00000170: 0422 edbd 435e c33e ff24 643d 6f44 8cbd
00000180: 1c95 143e 6205 6a3e 3499 873e c918 68be
00000190: 60d7 32be dfab 03be f4dc 96bd 0b83 0cbe
000001a0: e496 13be bafe a83e 1e48 643e 716a 71bd
000001b0: d55b 0f3e 7922 9abe 87c0 febd 168b 47bd
000001c0: 4bfc 093e 035c 0fbd 29d9 9b3c a321 4c3d
000001d0: aebd b43c 034a fe3e c78b 133f 2faf 173d
000001e0: 6d39 ad3e 4c13 313f 3cea a83e 5eac 15be
000001f0: e7bf e93d 5783 653e 0195 96be 1160 48bd
00000200: 0971 a83e ad2c 75be aca6 60bc 80a4 9b3e
00000210: 84e8 79be 457e 7bbe 78f0 4e3d a060 12bd
00000220: bded 963e ef14 8bbc 7d94 a7bd c15f 8a3d
00000230: 31b1 d53d 0173 13be 9ce5 02bd 7140 713d
00000240: 425b 0dbe d3d8 adbd 2484 b4be b7bc 383e
00000250: 04c4 933e b40b 9e3e 3bca 2abd 585e 0e3d
00000260: 3dae bd3e f4f9 083e 338b 623d f6ce 893e
00000270: f16f 7e3c c663 9a3d fff4 e53d f4e6 84be
00000280: 0d77 13bf 9a44 e93d 72da 4fbe 9512 98be
00000290: 2321 15be 963d 29bd 02d9 013e 44fd 18bb
000002a0: e3b6 11be c2ce 06bd c1e6 523e ef64 00bf
000002b0: 33c3 82be 7564 56be 52e3 1cbe 06c8 fd3d
000002c0: b7d1 123d 4a5e 1f3e 0ea7 803e 0dbf 393e
000002d0: 2a17 f63c a57e 973d 6234 cbbe 7620 303d
000002e0: d745 ea3d 7916 5fbd e72d 2f3e aac2 33be
000002f0: 1a17 58be 609e a73d 19f4 30bd c2b7 cabd
00000300: 2f37 91be 020f 11be 0867 83bd f0ff 5abe
00000310: c9ff a03d 23a2 173d c2c9 213e aa37 dabd
00000320: 5c3b f0bd 3d2f 713d 9310 1f3d 94cb 52be
00000330: ab64 38be a1cd 2fbe d40b 98be f8c3 653e
00000340: 6585 1a3e eafb 3e3c fd1b ab3d a774 3c3e
00000350: f06b 1a3d e308 a43c c413 d63c 7d6e 9cbe
00000360: 5cdb 46bd 71ab 42be 94af 35be 29c8 d2bc
00000370: 8a0b ac3d 405c 0d3e 1102 b2bc eed9 a4bd
00000380: 4316 a7bc 3d9d 1c3d 5ea2 c23c b709 30bc
00000390: 114a 323c 3ff0 a0bd aa0e 233b 2924 173d
000003a0: bd2f 20be 00ae 893e 4459 c23e 8048 063e
000003b0: 40ba 703d 54a6 8d3e 993f de3d b26c bf3c
000003c0: bbd8 a5be 0c2e 9abe baf8 1ebf c39b 61be
000003d0: a9f6 a3be 6b30 2cbe c9f8 093e 038c 37be
000003e0: 28d6 bf3e 5330 e73e ef17 973e 829e 813e
000003f0: eae4 57be f664 08be 33fc a9bd 4b70 9d3d
-0.059637062 0.11150684 -0.22424169 0.18341658 -0.16437346 0.35936096 -0.095819704 -0.26691636
-0.0031801094 -0.14043777 -0.14600915 -0.08207036 -0.21591477 -0.015751073 -0.18418981 -0.31247047
-0.21757172 -0.03229975 0.07036131 0.07060975 -0.049159136 0.036103986 0.004694781 0.25979367
0.021704962 0.24245004 0.29833347 0.23287277 0.08136159 -0.07864016 0.020803789 0.083609566
0.13609032 0.02267239 -0.14869095 0.24517803 -0.14838624 0.11501386 0.08104755 0.004169182
0.09623442 0.11418942 0.009656681 0.11634015 0.15928048 0.43146557 -0.0806279 -0.18150207
0.4116221 0.00278132 -0.1747806 0.119938195 -0.040592607 0.02491595 0.06330452 0.097534634
-0.051899955 0.36048087 0.30495325 0.1518568 0.12143406 0.14625044 0.15934177 -0.19011198
-0.07374664 -0.022776641 -0.026469156 0.1574058 0.15472506 -0.1259085 0.051225323 0.20404133
0.28089398 0.1961396 0.3326953 -0.122229464 -0.2170423 -0.10776409 -0.04879012 -0.26358548
-0.1820948 0.0042199586 -0.051686887 -0.060907286 0.25979766 0.10110134 0.13075405 0.23831691
0.05251169 -0.280659 -0.17466074 -0.08446283 -0.115787536 0.38157853 0.055699345 -0.0684899
0.14510006 0.22853616 0.26484072 -0.22665705 -0.17464972 -0.12858532 -0.07366362 -0.13721864
-0.14413029 0.3300684 0.22293136 -0.0589394 0.13999875 -0.30104426 -0.124390654 -0.048716627
0.13475148 -0.03499986 0.019024448 0.049836766 0.022063103 0.4966584 0.5763516 0.037032302
0.33832875 0.6917007 0.32991207 -0.14616534 0.114135556 0.22413383 -0.29410556 -0.04891974
0.3289874 -0.23942824 -0.013711613 0.3039894 -0.24405104 -0.24559887 0.050522298 -0.03573668
0.29478255 -0.016977755 -0.08182619 0.06756545 0.10434187 -0.1439934 -0.031957254 0.058899347
-0.13804343 -0.084886216 -0.35257065 0.18040739 0.28860486 0.30868304 -0.04169677 0.034757942
0.37046996 0.133766 0.055308532 0.2691571 0.015529619 0.075385615 0.1122837 -0.25957453
-0.5760353 0.11390038 -0.20298174 -0.29701677 -0.14563422 -0.0413185 0.12680438 -0.0023344317
-0.14229922 -0.032912023 0.20595838 -0.5015401 -0.2553955 -0.20936759 -0.15321091 0.12391667
0.03584453 0.15563312 0.25127453 0.18139286 0.030040342 0.073972024 -0.39688402 0.042999707
0.11439102 -0.05446479 0.17107354 -0.17554727 -0.21102563 0.081845045 -0.04320154 -0.0989833
-0.28362414 -0.14165881 -0.06416136 -0.21386695 0.07861287 0.03701986 0.15799621 -0.10655148
-0.11730072 0.05888294 0.038834166 -0.20585471 -0.18007152 -0.17168285 -0.29696524 0.22438037
0.15089948 0.011656741 0.08354948 0.18403874 0.037700593 0.020023769 0.026132472 -0.30553046
-0.04854904 -0.19010712 -0.17742759 -0.02573021 0.084006384 0.13804722 -0.021729501 -0.08049379
-0.020396357 0.03823589 0.023759063 -0.010744504 0.010881917 -0.07858323 0.0024880567 0.03689972
-0.1564321 0.26890564 0.3795873 0.13113594 0.05877137 0.2766596 0.10851974 0.02336726
-0.32391915 -0.30113256 -0.62098277 -0.22032075 -0.32024124 -0.16815345 0.1347381 -0.17924504
0.37468076 0.45154056 0.29510447 0.25316244 -0.21083418 -0.13319764 -0.08300056 0.07687434

layer2.0.bn2.weight f4 [32]
00000000: 13ed 773f 03e9 733f fa4b 8d3f a3d3 913f
00000010: a660 793f 3611 813f a3b1 813f 08c8 4a3f
00000020: 1ea3 8a3f dced 863f a53d 773f 6eaa 703f
00000030: 1ef2 883f 767e 7a3f d6da 683f 9979 873f
00000040: 8b60 7d3f e5c5 843f f580 983f 0ab4 753f
00000050: 4725 803f 1ed9 893f 55ca 733f c108 873f
00000060: 26d3 9d3f 50a4 773f e05d 693f a3ae 6b3f
00000070: 8a7b 953f 7ac5 633f 0a94 6c3f 591d 703f
0.9684612 0.9527742 1.1038811 1.1392711 0.974131 1.0083377 1.0132335 0.79211473
1.083103 1.0541339 0.9657844 0.94010055 1.0698888 0.97849214 0.9095892 1.0583984
0.9897544 1.0372893 1.1914355 0.9597784 1.0011376 1.0769384 0.9523061 1.0549546
1.2330062 0.96735096 0.91158867 0.9206335 1.1678326 0.889732 0.9241339 0.9379478

layer2.0.bn2.bias f4 [32]
00000000: 5985 0abf ca0e afbe 2b2a d0bd 364e a4be
00000010: 3adf 7bbe b8c9 79bd fef7 07bf 4874 45be
00000020: 1686 d8be f138 e1be a20a 9abe 18f6 a0bd
00000030: 3fdf 97be 31e7 c0bd ca43 b1be 053a 07bf
00000040: bddf 74be 0577 9dbe 8a81 dfbe fc3c 92be
00000050: 6985 863c 8013 d2be 3beb 0fbe 7658 6fbe
00000060: 1362 17bf 1893 8bbe d6c4 d2bd 2ca2 5dbd
00000070: f619 c8be 8fd9 e9bd 2348 92bd af69 b3bd
-0.5410972 -0.3419097 -0.10164293 -0.3209092 -0.24596873 -0.06098339 -0.5311278 -0.19282639
-0.422898 -0.43988755 -0.30086237 -0.07859439 -0.2966251 -0.09419096 -0.3462203 -0.52822906
-0.23913474 -0.30754867 -0.43653518 -0.28562152 0.016421037 -0.41030502 -0.14054577 -0.23373589
-0.59134024 -0.2726066 -0.1029145 -0.054109737 -0.39082307 -0.11418449 -0.07142665 -0.08760392

layer2.0.bn2.running_mean f4 [32]
00000000: 5a12 5640 5b26 19c0 7acf afbf 5348 a9c0
00000010: b0ac 36c0 9894 a33f 1e55 59bf 72db 4bc0
00000020: 4bcc 17bf 78f6 853e 64e0 c3bf 2b91 193f
00000030: cf43 35c0 1db4 0940 3ba8 1ec0 a1d4 3fc0
00000040: 8f84 f6c0 34f3 14c0 c808 fbc0 3fe5 63c0
00000050: ed29 16bf 4ff1 21c0 f3f9 9ec0 1dbb 83bf
00000060: 564c 95c0 2782 89c0 39d4 01c0 eceb 37c0
00000070: b879 33bf 65e1 09c0 1021 5040 95fd 4dc0
3.34487 -2.392966 -1.3735192 -5.2900786 -2.85429 1.2779722 -0.84895504 -3.1852689
-0.592961 0.26164603 -1.5302854 0.59987134 -2.8322637 2.1516182 -2.479018 -2.9973528
-7.7036815 -2.327344 -7.844822 -3.560867 -0.58657724 -2.5303533 -4.9680114 -1.0291477
-4.6655684 -4.2971377 -2.028578 -2.8737745 -0.70107603 -2.154382 3.252018 -3.2186024

layer2.0.bn2.running_var f4 [32]
00000000: 9e8a f440 2459 c440 3a94 3a41 b766 0741
00000010: a9c3 2941 6749 2c41 224e 0941 932e ea40
00000020: 3ecd f740 53a5 2841 2dbb d340 b35e 1e41
00000030: 6ecf fc40 9c8f 2741 c13c 9f40 30eb cd40
00000040: d543 2a41 cbb4 e840 40cd 1941 f583 3441
00000050: c994 2841 f0d8 fd40 a78a 4641 c02f 0341
00000060: 1576 ea40 c8be 1641 5b15 2941 fa8a be40
00000070: 2811 1741 1d11 ce40 0e4f 0441 4b7e 2d41
7.641921 6.1358814 11.661188 8.462577 10.610269 10.7679205 8.581575 7.3181853
7.743804 10.540362 6.6165986 9.89812 7.900321 10.472561 4.9761662 6.4349594
10.641561 7.2720695 9.61261 11.282216 10.5363245 7.9327316 12.408851 8.199158
7.3269143 9.421577 10.567714 5.954465 9.441689 6.439589 8.2693 10.843333
